model.pth (torch, 2240 bytes, 3 tensors)

0.weight f4 [32, 1]
00000000: 6aa2 0a40 eeff 0440 affe e0bf 3c8d 01c0
00000010: 5880 0a40 3942 f2bf cb90 f9be e60b ffbf
00000020: 4bdc e93f 5dc2 0540 2840 0cbe 04a0 d5be
00000030: 0519 ab3f cf39 fabf 6b6d ed3f 7140 bcbf
00000040: 06c3 de3f 6825 a43f 48cc fa3e c0f3 0cbe
00000050: 72f9 003f 2ab9 c5bf b8fa 5bbe 88c4 bb3f
00000060: d123 f2bf 20ea 6dbe 7625 0d40 9e88 b9bf
00000070: e03b 613e 88f0 773e cfc1 e23f ad5b 0740
2.166163 2.0781207 -1.7577723 -2.0242453 2.1640835 -1.892646 -0.4874328 -1.9925506
1.8270353 2.089988 -0.13696349 -0.41723645 1.336701 -1.9548892 1.8549017 -1.4707166
1.7403266 1.2823915 0.4898398 -0.13764858 0.50380623 -1.5447133 -0.2148236 1.4669352
-1.891718 -0.23233843 2.2054114 -1.4494817 0.21995497 0.24212849 1.7715396 2.1149704

0.bias f4 [32]
00000000: e469 9b3f 783d e63f bfcd 0040 bab8 413f
00000010: 3b55 6b3f f494 e13f d358 d63f dbe6 b33f
00000020: 1325 fe3f 09a7 f23e 98a8 23bf bc50 3abf
00000030: 30a4 ab3f 1723 de3f 441e f93f 1edd ca3f
00000040: 81cb c83f d8b5 703f ab95 1fbf f490 53bf
00000050: 167a 77bf 9729 063f 92ac 2abf 2521 183f
00000060: d7fe 613f 649f 4dbf ba0e 9f3f 0b00 b23f
00000070: 5210 7ebf 0a20 3fbf 265a a83f 9d1f d03f
1.214169 1.7987509 2.0125577 0.75672495 0.91926926 1.7623582 1.6745857 1.4054826
1.9855064 0.47393063 -0.6392913 -0.7277944 1.3409481 1.7354459 1.9462361 1.584873
1.5687104 0.9402747 -0.6233775 -0.82643056 -0.96670663 0.5240721 -0.6666957 0.59425575
0.8827948 -0.80321336 1.2426369 1.3906263 -0.9924365 -0.7465826 1.3152511 1.6259648

2.weight f4 [1, 32]
00000000: 2f08 ab3f 0ebb a53f cee7 9e3f 67c4 c13f
00000010: a01c a33f a2c6 a63f 664e 843f e4d9 9a3f
00000020: 625b a43f 956f c83f 1822 8fbc aee0 d33d
00000030: 8979 c03f 1fce 843f b590 933f dcc9 a43f
00000040: cb3d a93f 69fe 8c3f fac5 aa3d 4022 f6bc
00000050: f7a7 33be 42b5 8d3f 16fb 00be c416 933f
00000060: 0084 b73f 7004 04bc 824b b03f 3379 933f
00000070: 6aa3 c63d 700e c73c a663 b83f b9a2 a73f
1.3361872 1.294771 1.2414491 1.5138062 1.2743111 1.3029368 1.0336425 1.2097745
1.2840388 1.5659052 -0.017472312 0.103455886 1.503709 1.0375403 1.1528536 1.2874103
1.3221983 1.101514 0.08338542 -0.030045629 -0.17544542 1.107094 -0.12595782 1.1491323
1.4337158 -0.008057699 1.3773043 1.1521362 0.096991375 0.024298877 1.440541 1.3096534
