model.pth (torch, 2624 bytes, 3 tensors)

0.weight f4 [64, 1]
0	0x400ede2b	2.23231
1	0xbfc30b36	-1.5237796
2	0xbd59d6d2	-0.053183384
3	0xc00e0160	-2.218834
4	0xbfd257c3	-1.6433033
5	0xbf32f68d	-0.69907457
6	0xbfef35aa	-1.8688252
7	0xc013cd68	-2.309412
8	0xbface9d8	-1.3508863
9	0xbff1d900	-1.8894348
10	0xc0018ea5	-2.0243313
11	0xc00e6af8	-2.2252789
12	0xbe2b4310	-0.16724801
13	0xc0148a96	-2.3209586
14	0xbff20169	-1.890668
15	0x3c8d0060	0.017212093
16	0xbfb9565e	-1.4479482
17	0xbfea7734	-1.8317628
18	0x3dbbc510	0.09168446
19	0xbf7c275b	-0.9849755
20	0xbff01dd6	-1.8759105
21	0xbfd92805	-1.6965338
22	0xbff3cd17	-1.9046963
23	0xbf972e49	-1.1811
24	0x3ff01350	1.8755894
25	0xbfa443a9	-1.2833148
26	0x3fee7d75	1.8632036
27	0xc001e9f5	-2.0299046
28	0xbfcfd3e6	-1.6236541
29	0xc004a2f0	-2.072445
30	0xc004622c	-2.068492
31	0xbe3c5bf8	-0.18394458
32	0x3ff79ccf	1.9344729
33	0x3ff63d8e	1.9237535
34	0xbfa133e0	-1.2593956
35	0xbf72d605	-0.9485782
36	0xbffda100	-1.9814758
37	0xbfc572e7	-1.542569
38	0x3fe5acdb	1.7943376
39	0x3e2e17a8	0.17001212
40	0x3fbb6945	1.4641501
41	0xc0131dc1	-2.298691
42	0xbfaf89d2	-1.3713934
43	0xbda34360	-0.07971835
44	0xbe19f978	-0.15036571
45	0xc00d4bcd	-2.2077515
46	0xbfbdc3a8	-1.4825335
47	0xc00a8d41	-2.1648715
48	0xbfbc4c03	-1.4710697
49	0xc00f36f2	-2.2377286
50	0x3ff90b0f	1.94565
51	0xbfe28025	-1.7695357
52	0x3fddfddf	1.73431
53	0x3fdc62ba	1.7217629
54	0xc0084298	-2.1290646
55	0xbe67dff0	-0.22644019
56	0xbfe918e9	-1.8210727
57	0x3eaa8fcc	0.33312833
58	0xbd86f980	-0.06590557
59	0x3d001fe0	0.0312804
60	0xbe2ecf38	-0.17071235
61	0x3fee2699	1.8605529
62	0xbd8b4400	-0.06800079
63	0x3faf40cd	1.3691651

0.bias f4 [64]
0	0x3f815474	1.0103898
1	0x3fcf25d0	1.6183414
2	0xbdbd29a5	-0.09236459
3	0x400d10da	2.2041535
4	0x3f58a4f2	0.84626687
5	0x400d84a1	2.21122
6	0x3feb4aca	1.8382199
7	0x3fdce566	1.7257507
8	0x3fadb843	1.3571857
9	0x3f2e5fa4	0.68114686
10	0x3f1dbdce	0.61617744
11	0x3f4f8e7e	0.810768
12	0xbf2b4602	-0.669037
13	0x3f6c731a	0.9236313
14	0x3f0d2028	0.5512719
15	0xbe05f6ab	-0.13082378
16	0x3fb5a604	1.4191289
17	0x3fd1c80d	1.6389176
18	0xbf555098	-0.833261
19	0x3ff7c1ab	1.9355978
20	0x3fe7f693	1.8122123
21	0x3f180f60	0.5939846
22	0x3f692a26	0.9107994
23	0x3f9f1783	1.242905
24	0x3f1f9b88	0.62346697
25	0x3fa70fae	1.305166
26	0x3fd65d39	1.6747199
27	0x3fffd938	1.9988165
28	0x3f7b06ac	0.98057055
29	0x3fc5a8d2	1.5442145
30	0x3f63b4d1	0.8894778
31	0xbed40960	-0.41413403
32	0x3ffbafd3	1.9663032
33	0x4006eb84	2.1081247
34	0x3ff7c1e0	1.9356041
35	0x400cfb0c	2.2028227
36	0x3fe53eef	1.7909831
37	0x3f883f1e	1.0644262
38	0x3f87cb7c	1.0608974
39	0xbf3fc398	-0.7490783
40	0x3f99e59a	1.2023194
41	0x3fd9963c	1.6998973
42	0x3fb9ffd1	1.4531194
43	0xbea4a21c	-0.3215493
44	0xbf61b9ba	-0.8817402
45	0x4000fa7f	2.015289
46	0x3fc8c0f3	1.5683883
47	0x3fc06ae3	1.5032619
48	0x400e642e	2.2248645
49	0x3f10dbd8	0.56585455
50	0x3f8a66ab	1.0812582
51	0x3fd5e3ff	1.6710204
52	0x3fd36dac	1.6517844
53	0x3fa50da4	1.2894788
54	0x3fee6258	1.8623762
55	0xbf441a9a	-0.7660309
56	0x3fc8e716	1.5695522
57	0xbf4b8f8a	-0.795159
58	0xbefa33bc	-0.48867595
59	0xbf0de2ac	-0.55424
60	0xbf7e6b36	-0.9938234
61	0x3ffe0bdd	1.984737
62	0xbe3a7020	-0.18206835
63	0x3faf2de3	1.3685879

2.weight f4 [1, 64]
0	0x3fac24f1	1.3448774
1	0x3fa22496	1.2667415
2	0xbcc0966d	-0.023509229
3	0x3f964c9e	1.1742132
4	0x3f9f1386	1.2427833
5	0x3f91f3d9	1.1402541
6	0x3fa3332f	1.2749995
7	0x3f98eb5f	1.194683
8	0x3fa9dd59	1.3270675
9	0x3fc49f0e	1.536104
10	0x3fbd984c	1.4812102
11	0x3fa74928	1.30692
12	0x3ddc4a42	0.10756351
13	0x3fa47b22	1.2850077
14	0x3f98b7e2	1.1931117
15	0xbc0aa55d	-0.008462277
16	0x3fb23ee1	1.3925439
17	0x3fa1568b	1.2604536
18	0x3d1d8dd4	0.038465336
19	0x3f9e7952	1.2380774
20	0x3fa3b6e7	1.2790192
21	0x3fa01952	1.2507727
22	0x3fb385d4	1.4025216
23	0x3f9b8986	1.2151344
24	0x3fac1463	1.3443722
25	0x3fa92538	1.3214483
26	0x3f9ef26c	1.2417731
27	0x3f9830e2	1.1889918
28	0x3fc34ca8	1.5257769
29	0x3f9de0b3	1.2334198
30	0x3f9baeab	1.216268
31	0xbd70e068	-0.05880776
32	0x3f9d4f9f	1.2289923
33	0x3f946f86	1.1596534
34	0x3f895cc3	1.0731434
35	0x3fa0edf2	1.2572615
36	0x3f9c9eac	1.2235923
37	0x3f9e9213	1.2388328
38	0x3fb6f8da	1.4294693
39	0x3d8a92b6	0.06766264
40	0x3fad7313	1.3550743
41	0x3f9bf245	1.218331
42	0x3f9814a7	1.1881303
43	0x3c2b8270	0.01046811
44	0xbd66a498	-0.056309313
45	0x3f97aa91	1.1848928
46	0x3fa33c45	1.2752768
47	0x3fa2cb6b	1.2718328
48	0x3f9ac8ec	1.2092566
49	0x3fb51f5f	1.4150199
50	0x3fb0a780	1.3801117
51	0x3fa169f4	1.2610459
52	0x3fa86e74	1.3158708
53	0x3fb2c73d	1.3967053
54	0x3f95bd69	1.1698428
55	0x3c73ccc0	0.014880359
56	0x3fa498a3	1.2859081
57	0xbdba7c90	-0.0910579
58	0xbcdfaf60	-0.027305305
59	0xbdd81368	-0.105505764
60	0x3a244a00	0.00062671304
61	0x3fa4c637	1.287299
62	0xbd0ed46c	-0.03487055
63	0x3f96a104	1.1767888
